…
Y_train shape: (2880, 2304)
Y_train shape: (2880, 2304, 1)
Y_train shape: (2880, 2304, 2)
2020-04-01 20:44:01.758455: I T:\src\github\tensorflow\tensorflow\core\platform\cpu_feature_guard.cc:140] Your CPU supports instructions that this TensorFlow binary was not compiled to use: AVX2
__________________________________________________________________________________________________
Layer (type)                    Output Shape         Param #     Connected to                     
==================================================================================================
input_1 (InputLayer)            (None, 1, 48, 48)    0                                            
__________________________________________________________________________________________________
conv2d_1 (Conv2D)               (None, 32, 48, 48)   320         input_1[0][0]                    
__________________________________________________________________________________________________
dropout_1 (Dropout)             (None, 32, 48, 48)   0           conv2d_1[0][0]                   
__________________________________________________________________________________________________
conv2d_2 (Conv2D)               (None, 32, 48, 48)   9248        dropout_1[0][0]                  
__________________________________________________________________________________________________
max_pooling2d_1 (MaxPooling2D)  (None, 16, 24, 48)   0           conv2d_2[0][0]                   
__________________________________________________________________________________________________
conv2d_3 (Conv2D)               (None, 64, 24, 48)   9280        max_pooling2d_1[0][0]            
__________________________________________________________________________________________________
dropout_2 (Dropout)             (None, 64, 24, 48)   0           conv2d_3[0][0]                   
__________________________________________________________________________________________________
conv2d_4 (Conv2D)               (None, 64, 24, 48)   36928       dropout_2[0][0]                  
__________________________________________________________________________________________________
max_pooling2d_2 (MaxPooling2D)  (None, 32, 12, 48)   0           conv2d_4[0][0]                   
__________________________________________________________________________________________________
conv2d_5 (Conv2D)               (None, 128, 12, 48)  36992       max_pooling2d_2[0][0]            
__________________________________________________________________________________________________
dropout_3 (Dropout)             (None, 128, 12, 48)  0           conv2d_5[0][0]                   
__________________________________________________________________________________________________
conv2d_6 (Conv2D)               (None, 128, 12, 48)  147584      dropout_3[0][0]                  
__________________________________________________________________________________________________
up_sampling2d_1 (UpSampling2D)  (None, 256, 24, 48)  0           conv2d_6[0][0]                   
__________________________________________________________________________________________________
concatenate_1 (Concatenate)     (None, 320, 24, 48)  0           conv2d_4[0][0]                   
                                                                 up_sampling2d_1[0][0]            
__________________________________________________________________________________________________
conv2d_7 (Conv2D)               (None, 64, 24, 48)   184384      concatenate_1[0][0]              
__________________________________________________________________________________________________
dropout_4 (Dropout)             (None, 64, 24, 48)   0           conv2d_7[0][0]                   
__________________________________________________________________________________________________
conv2d_8 (Conv2D)               (None, 64, 24, 48)   36928       dropout_4[0][0]                  
__________________________________________________________________________________________________
up_sampling2d_2 (UpSampling2D)  (None, 128, 48, 48)  0           conv2d_8[0][0]                   
__________________________________________________________________________________________________
concatenate_2 (Concatenate)     (None, 160, 48, 48)  0           conv2d_2[0][0]                   
                                                                 up_sampling2d_2[0][0]            
__________________________________________________________________________________________________
conv2d_9 (Conv2D)               (None, 32, 48, 48)   46112       concatenate_2[0][0]              
__________________________________________________________________________________________________
dropout_5 (Dropout)             (None, 32, 48, 48)   0           conv2d_9[0][0]                   
__________________________________________________________________________________________________
conv2d_10 (Conv2D)              (None, 32, 48, 48)   9248        dropout_5[0][0]                  
__________________________________________________________________________________________________
conv2d_11 (Conv2D)              (None, 2, 48, 48)    66          conv2d_10[0][0]                  
__________________________________________________________________________________________________
reshape_1 (Reshape)             (None, 2, 2304)      0           conv2d_11[0][0]                  
__________________________________________________________________________________________________
permute_1 (Permute)             (None, 2304, 2)      0           reshape_1[0][0]                  
__________________________________________________________________________________________________
activation_1 (Activation)       (None, 2304, 2)      0           permute_1[0][0]                  
==================================================================================================
Total params: 517,090
Trainable params: 517,090
Non-trainable params: 0
__________________________________________________________________________________________________
Train on 2304 samples, validate on 576 samples
Epoch 1/20
2020-04-01 20:44:05.835145: W T:\src\github\tensorflow\tensorflow\core\framework\allocator.cc:101] Allocation of 94371840 exceeds 10% of system memory.
…
